pybuda/test/model_demos/high_prio/cnn/onnx/weights/fpn.onnx (onnx, 105421 bytes, 7 tensors)

fpn.inner_blocks.0.0.weight f4 [5, 10, 1, 1]
00000000: ce5f 4f3d 7f85 53bd d2a0 743e 663d 603e
00000010: 76db f2be cece 273e c9a0 efbe 58db a93e
00000020: 2776 243e accc b8be 422f 54be 578e acbd
00000030: 83b4 9d3e d313 4bbe fea6 0abf 5923 343e
00000040: f47f 7fbe 296a e3be c916 1f3e fe56 0bbf
00000050: 94e2 093f c7c3 d6bd d6b3 203e 8f57 c63d
00000060: 7b79 38be 4196 2b3e adc2 ce3e a376 8d3e
00000070: 60a8 06bf 7cb8 08bf c785 e33c 7bfe 1ebe
00000080: 26a9 92bc f57e f63e bebd febe ae60 d2be
00000090: c42d 0b3e f821 05be f9b3 b7be 48f2 c33d
000000a0: 852c d8bd 093a 763e f13e 793c 7d3e 09be
000000b0: 484e ea3e d2f7 443d 1506 93be 1d9f efbd
000000c0: ca47 ddbe 0f24 8abe
0.050628476 -0.051640984 0.23889473 0.21898422 -0.4743306 0.16387483 -0.46802357 0.33175159
0.16060697 -0.36093652 -0.20721152 -0.08425587 0.30801782 -0.19831781 -0.5416106 0.17591609
-0.24951154 -0.4441693 0.15536036 -0.54429615 0.53861356 -0.1048656 0.15693602 0.09684669
-0.18015091 0.16756536 0.403829 0.27629575 -0.5260067 -0.534065 0.027773751 -0.15526764
-0.017902922 0.48143736 -0.49754137 -0.41089386 0.13591677 -0.1300124 -0.35879496 0.09567696
-0.105553664 0.24045576 0.01521276 -0.13402744 0.4576285 0.048087902 -0.28715578 -0.1170027
-0.43218833 -0.26980636

fpn.inner_blocks.0.0.bias f4 [5]
00000000: 0000 0000 0000 0000 0000 0000 0000 0000
00000010: 0000 0000
0.0 0.0 0.0 0.0 0.0

fpn.inner_blocks.1.0.weight f4 [5, 20, 1, 1]
00000000: 65fc 5a3e 0016 183e db42 c33c 7726 213e
00000010: 13b4 d0bd 69b4 b6be 0895 bbbe a397 a3bd
00000020: 3f0f c4be cc0e a13e ce10 4b3e ce62 7c3e
00000030: 8edc 913e 7aca 6d3e ab06 043e 2b11 e23d
00000040: 4088 9a3d 0191 b63e b340 3d3b 6d11 9b3d
00000050: 63c2 2fbc 5850 d03d 0a0d 99bd fd5c 443e
00000060: be37 7c3e bd16 9b3e a41d b03d b08d 68be
00000070: 2e60 d7bb a4c5 a33e ddd6 ba3d 3a66 05bd
00000080: 9c03 9c3d 11f7 48be 989f 56be 375e fe3c
00000090: 06d0 3abe 2bfe a6be 8583 713e dccc 053e
000000a0: 4d6b 9cbe 548b 493e 95cb a9be 1c4f 14be
000000b0: 6009 9dbd 65bd 5cbd d3a4 ed3b 8c6c bf3d
000000c0: 77b5 3f3e 519a ad3e 3ba8 013e f3c7 d1bc
000000d0: 79a0 9c3e 678f 083e 1d24 323e aba0 aabb
000000e0: dab0 adbc 6dc4 53bd 973f d5bd 43a6 c33e
000000f0: 4b36 0dbe 00f4 39bd bf9e 963c 12bc d83d
00000100: 9b0f a9be f465 8fbe 0522 6ebd 214d e83d
00000110: a6bc b2be b7cb aa3e b0ea 683e 472b 86be
00000120: 35a0 71be 8be4 2a3d 5f06 8abe 4389 75be
00000130: cd72 4a3e 5a27 873e 78d0 93be 68d3 c43e
00000140: a212 ae3e f0ac 743e 000a 053d e617 79be
00000150: 4e05 083e f00b 9cbd beec 8abe 6008 b23d
00000160: 995c ba3e c1ee b73e c570 2e3e 0044 bcbe
00000170: 2a31 19be 2a2f dd3d c220 ba3d 8c37 c5be
00000180: 0647 4dbe a27c 263c 58b5 c03e 358c 063e
0.21385343 0.14852142 0.02383559 0.1573733 -0.101905964 -0.35684517 -0.3663714 -0.07987907
-0.38292882 0.31456602 0.19830629 0.24647066 0.28488582 0.2322177 0.12893169 0.11038431
0.07545519 0.35657504 0.0028877675 0.07571683 -0.010727498 0.10171574 -0.0747319 0.19176097
0.24630639 0.30290785 0.085994035 -0.227103 -0.006572745 0.31986725 0.09123013 -0.032568194
0.07617876 -0.19625498 -0.20959318 0.031050785 -0.18243417 -0.3261579 0.23585327 0.13066429
-0.30550614 0.19682056 -0.33163133 -0.14483303 -0.07667804 -0.05389156 0.0072523146 0.093468755
0.18721567 0.33906797 0.12661831 -0.025608039 0.3059118 0.13335954 0.17396589 -0.0052071414
-0.021202493 -0.051700998 -0.104125194 0.38212785 -0.13790242 -0.045398712 0.018386243 0.105827466
-0.3301972 -0.28007472 -0.058137912 0.11342836 -0.34909552 0.33358547 0.22745776 -0.26204893
-0.2359627 0.04172186 -0.26957986 -0.23978142 0.19770356 0.2639721 -0.28869987 0.3844254
0.3399859 0.23894095 0.03248024 -0.24325523 0.13283274 -0.076194644 -0.27133745 0.08693004
0.3639877 0.35924342 0.17035206 -0.3677063 -0.14960161 0.108000115 0.09088279 -0.3851894
-0.20046625 0.010161551 0.37638354 0.13139422

fpn.inner_blocks.2.0.weight f4 [5, 30, 1, 1]
00000000: 1063 65bd 0b65 543e 6cb2 90be e041 5bbe
00000010: ad22 363d 54a3 80be e486 5ebd 8a91 3abd
00000020: 276c 18be 2cf3 a0be e0bc 9cbc 2a15 933e
00000030: c39e 20be b704 9b3e 67be 7d3e 1746 423d
00000040: f341 053e 7284 ff3d 5d82 87bd d9af 3dbe
00000050: e1ea 6d3e 244e 2ebe 7296 41be d266 6e3e
00000060: 8e50 2d3e 07f5 e03c 490b e8bd 2939 0ebe
00000070: 1ae3 60be 59a6 a1be 0c73 61bc 2ae2 95be
00000080: dfb9 1fbe 015f 91be 4469 94bd aa6c 4b3d
00000090: 35eb 2dbd d118 8f3e 79bc 46be a01d a7bd
000000a0: 3af9 513d 6cf1 8abe fdec a0bd 964c c1bc
000000b0: 36ca 753d 5c47 193d c7d1 9dbe a945 753e
000000c0: 125c 0f3e ab1d 60be a2a2 6dba f1ca 23be
000000d0: a863 9d3e d952 963e b435 883e 51a1 80be
000000e0: 1270 f6bd 19c8 c5bc 1c13 ee3d 34bf ab3d
000000f0: a45a 163e fe14 68be 0a6f d5bd ada4 dbbd
00000100: 8773 a03e a266 83be fee5 6f3e 0ae4 ebbd
00000110: 3176 0c3e 5e3e ed3d 2d4b c0bb a7d3 863e
00000120: f9a1 9bbe 7eee 8bbe c9ca 483d ef3a 543e
00000130: a5f0 9dbc b32d 8f3e 5457 9c3e c7b4 6a3e
00000140: bb48 6bbe 10b5 28be 995a f1bd 9794 45be
00000150: 61e5 a0bd f9d7 84be 80e9 793d 3850 96be
00000160: 9563 83be 43fa af3d 309e 55be e90f dbbd
00000170: 78ff 15be c250 953e 4282 193b e8ee 3c3e
00000180: 8f5f c1bc c966 3b3e 189d dcbd 933d 86be
00000190: 1fab 43be 57c7 8abd 51f1 f4bd 1ad6 9a3e
000001a0: ee0b a33d 71b7 093c 8c88 103e f4b4 813e
000001b0: bd23 7fbd 26a0 66be b62e 3f3e 4fd6 c53d
000001c0: 687c 96bd 7f22 393e 0203 92be 6fbb 593e
000001d0: 5d93 dbbd 3b61 99be ba4c 6bbd e49b 943e
000001e0: 70a2 943e d94d 69be 0818 e13d 786d eabc
000001f0: fe1f 94be 238f 673e 71bb 543d d505 f5bc
00000200: 7178 4c3e 5513 3d3e 2e80 3e3e ef96 72be
00000210: c802 7c3e 5399 553e 1c16 2dbe 1efd 2dbe
00000220: 4ca1 e53d 8cb1 473e 0021 b33d 8f12 6e3e
00000230: 3214 2dbe 82d0 4f3e 0194 8f3e ba41 843e
00000240: 3a67 3fbe c41c 19be 1c96 493e c5ce 9b3e
00000250: 0dcd d7bd 68b9 a73a
-0.056002676 0.2074167 -0.28261125 -0.21411848 0.044466663 -0.2512461 -0.05432786 -0.045548953
-0.14885007 -0.31435525 -0.019133031 0.28727084 -0.15685563 0.30277035 0.24779664 0.047430124
0.13013439 0.12476434 -0.06616662 -0.18524112 0.2323413 -0.17021996 -0.18905047 0.2328141
0.1692526 0.027460588 -0.113302775 -0.13888992 -0.21961632 -0.31572226 -0.0137603395 -0.29274112
-0.15598248 -0.28392795 -0.0724664 0.049664177 -0.04246064 0.2794862 -0.19407834 -0.081599474
0.05126307 -0.27137315 -0.07857702 -0.02359609 0.060007297 0.03742157 -0.3082411 0.23952354
0.13999966 -0.21886317 -0.00090650667 -0.15995385 0.30740094 0.29360083 0.26603472 -0.25123075
-0.120330945 -0.024143266 0.116247386 0.083860785 0.14683014 -0.22664258 -0.1042157 -0.10724769
0.3133814 -0.2566424 0.23427579 -0.115181044 0.13716961 0.11584161 -0.0058683367 0.26333353
-0.30397013 -0.27330393 0.049021516 0.20725606 -0.019279787 0.27964553 0.30535376 0.22920524
-0.22976963 -0.1647532 -0.11784858 -0.19294964 -0.078562506 -0.25946024 0.0610137 -0.29358077
-0.25661913 0.085926555 -0.20861125 -0.10696394 -0.14648235 0.29163176 0.0023423587 0.1845051
-0.023605136 0.18300928 -0.10772151 -0.26218852 -0.19108246 -0.06776302 -0.1196009 0.30241472
0.0796126 0.008405552 0.14114588 0.2533337 -0.062289942 -0.2252203 0.18670163 0.09660017
-0.07347947 0.18079565 -0.2851792 0.21262906 -0.10721467 -0.29956993 -0.05744622 0.29025185
0.2903018 -0.22783603 0.10990912 -0.028616652 -0.28930658 0.22613196 0.05193657 -0.029910007
0.1996782 0.18464406 0.18603584 -0.23690389 0.24610436 0.2085927 -0.16902965 -0.16991088
0.112124056 0.19501323 0.087465286 0.23249267 -0.16902235 0.20294383 0.28042606 0.25831395
-0.18691722 -0.1495238 0.19686168 0.3043119 -0.10537157 0.0012796344

fpn.layer_blocks.0.0.weight f4 [5, 5, 3, 3]
00000000: b840 353e 6f5a b8bc 0a4f 1d3e dc07 6bbd
00000010: f665 d13b cae5 57be 27b5 4a3e fb05 053c
00000020: b29f 7a3e 93bd 653d f12f 23be 6fc7 683e
00000030: d68e 07be abbc 27bd 432b 2cbe 292c b3bd
00000040: f2b8 8d3d f7d0 37be f568 8a3c 9ca0 0dbe
00000050: 1f4a 483e b6c5 4d3e 1ce5 273d c59d f5bd
00000060: 11f5 73be 569f b03c 4fda 50bd 53e1 7b3e
00000070: 213c 54be 59ef d3bd f734 2abe 9b1c e93d
00000080: 506d b43d 2a5b 393e 2f1b 9cbc 837c 2a3e
00000090: da71 dcbd 7dfd b5bd 8c5b 0e3d bc15 703e
000000a0: d205 263e ed3f 79be d3b3 363d 3248 3a3e
000000b0: c553 f6bd 12a7 db3c 6bb4 e7bc 2283 18be
000000c0: 38d5 fd3d c70f e2bd bd4a 3e3e e727 e2bd
000000d0: 1f17 38be 0662 363e ca52 773e 9d07 453e
000000e0: 20a5 383e 1506 4b3e 745a 73be 050e f9bc
000000f0: d661 c3bc f149 9abd 4c2e 0abe 7603 653e
00000100: 33de 0bbe 1e30 5a3e 289c 1cbe 20f6 28be
00000110: 4618 6fbe 7a78 053e a9e8 7c3c e611 833d
00000120: 2524 2c3e a422 e9bd e313 f4bd 9ea2 5bbd
00000130: e994 753e f7ac 513e 1c4c 533e 3f6c b8bc
00000140: e324 60be 727e 273c 99f6 ef3d 3ce0 f0bd
00000150: 87a9 62be 5ac2 1c3e 1021 a83d ba86 89bd
00000160: 46fc 2a3e 382c 1cbe b547 823e 17b3 fd3d
00000170: 54a6 adbd cb3f 7a3d 0c1e 683e 573d f3bd
00000180: 04b7 503e 93ea 503e 5633 623e c6be 4d3e
00000190: 9111 10be 732e 803d 4b02 22bd 1da1 043e
000001a0: ecb1 533e f1b8 08be d6de dabc a502 3c3e
000001b0: 41af 8f3d a05b 2cbe 75d3 70be 2a89 2cbe
000001c0: 54b7 23bd e074 44be 4b6a 71be ae20 5d3e
000001d0: 7f69 21be 8d7c b13d 0167 e6bd 0ebf 00bd
000001e0: ac66 ffbb 5b9e 76be b68f be3c 2956 1e3e
000001f0: fdde c4bd 9a86 013e dfa4 00be c6dc 5ebe
00000200: f87c 50bd 5bcc c63c e5f1 6d3d 212b bf3d
00000210: d4d1 74be 30cc 4c3c 7ae1 563e c49f 8cbd
00000220: cd5c 5ebe 65ef 893d e8d6 4dbd 1b4f 763e
00000230: 4469 46be 70ff 44bd 117b 673d e76d be3d
00000240: 4fc6 803e 2349 a23d d61c 063c 30c1 4dbd
00000250: 97c4 e8bd 6d05 fbbd e650 2dba 07a1 40be
00000260: 912c 853d 61c1 713e 5206 c7bd 3617 2a3e
00000270: 680e 433d 8215 91bd e0fe feba 6f21 2abe
00000280: acf2 b43d 0bf3 7f3e 164e 0ebd f4dd eebd
00000290: 0c29 803e 0546 963d 3198 833e d44e 303e
000002a0: bb61 b93b 22ec 31be 6812 0dbc 83ad 243e
000002b0: 88a5 94bd a39a 53be 277a 63be 7f5d 36be
000002c0: fa4d 46be 2f08 673e 1e8c 4b3e f70d 7f3e
000002d0: 0404 083e 0004 eebd 8b08 403e b7f2 5d3e
000002e0: 6e13 c83d ffe2 65be 84c3 d23d 48a6 283e
000002f0: e755 5ebe e509 313e 46cd 08be fcaf 603e
00000300: fbb7 49be ce8c 9f3c ab0c bc3d 5038 24be
00000310: 2111 0cbe 9f4c 563e cf28 72bd 80ba 1c3e
00000320: da2a 2d3e f14a b1bd c75c 203e f1a0 6b3e
00000330: eede 14bc f699 ca3c fe09 97bc b9ec febd
00000340: f6fb 5fbe d3d9 41bc 6184 1bbe 8c33 6fbe
00000350: 10e0 633e 4d34 ea3d 9d22 42be af35 1cbe
00000360: d23e e23d 4c91 80be a095 0cbe 8a8d 063e
00000370: b94a 7f3e 7c7f 4dbe c910 41bd 4fbb a6bc
00000380: 777a 8ebd
0.1770047 -0.02250406 0.15362182 -0.057380542 0.0063903285 -0.21083751 0.19795667 0.008119102
0.24474981 0.056088995 -0.15936257 0.22732328 -0.13238081 -0.040951412 -0.16813378 -0.08748657
0.06920041 -0.17950808 0.01689575 -0.13830799 0.19559525 0.20094952 0.04098998 -0.11992983
-0.23823954 0.021560352 -0.050989445 0.24597673 -0.20726062 -0.10348386 -0.16621767 0.11382409
0.08809912 0.18101183 -0.01905593 0.1664906 -0.10763903 -0.0888624 0.034755275 0.23445791
0.16213158 -0.24340792 0.044605087 0.18191603 -0.120276965 0.026813064 -0.028284272 -0.14893773
0.12394184 -0.110381655 0.18583198 -0.11042767 -0.1797757 0.1781083 0.24152675 0.19241185
0.1803174 0.19826539 -0.23764974 -0.030402193 -0.023850363 -0.075336345 -0.13494223 0.22364601
-0.13658981 0.21307418 -0.15293944 -0.16500139 -0.23349103 0.1303424 0.01543633 0.06399898
0.16810663 -0.1138356 -0.119178556 -0.05362188 0.23982586 0.20476137 0.20634502 -0.022512553
-0.21889071 0.010223018 0.11716957 -0.11761519 -0.22134982 0.15308514 0.08209431 -0.0671515
0.16697797 -0.15251243 0.25445333 0.12387674 -0.0847899 0.061095994 0.22667712 -0.11876934
0.20382315 0.20401983 0.22089896 0.20092306 -0.14069201 0.062588595 -0.039552968 0.12952085
0.2067334 -0.133518 -0.026717585 0.18360384 0.07015849 -0.16831827 -0.23518164 -0.16849199
-0.039969757 -0.1918521 -0.23575704 0.21594498 -0.157629 0.08666334 -0.11250115 -0.031432204
-0.007794222 -0.24083845 0.023261886 0.15462555 -0.09612844 0.12649003 -0.12562893 -0.21763906
-0.05090043 0.024267366 0.058092017 0.09334398 -0.23908168 0.012499854 0.2098445 -0.068664104
-0.21715088 0.06735114 -0.05025378 0.24053614 -0.19376093 -0.048095167 0.05651385 0.09298306
0.25151297 0.07924106 0.008185586 -0.050233066 -0.113656215 -0.12256894 -0.0006611481 -0.18811427
0.06502641 0.23608924 -0.097180024 0.16610417 0.04762116 -0.070841804 -0.0019454621 -0.16614316
0.088353485 0.24995057 -0.034742437 -0.11663428 0.25031316 0.07337574 0.2570205 0.1721757
0.0056574023 -0.17375234 -0.008610345 0.16081814 -0.07258135 -0.20664458 -0.22214566 -0.17809103
-0.19365683 0.22561716 0.19877669 0.24907671 0.13282782 -0.11621857 0.18753259 0.2167462
0.09769331 -0.22449873 0.10291198 0.16469681 -0.21712457 0.1728893 -0.13359556 0.21942133
-0.19699089 0.01947632 0.09182104 -0.16037107 -0.13678409 0.20927666 -0.05912095 0.15305519
0.16910878 -0.08656872 0.15660392 0.23010613 -0.009086354 0.024731617 -0.018437382 -0.12447495
-0.21873459 -0.0118317185 -0.15187217 -0.23359507 0.22253442 0.11435757 -0.18958516 -0.15254854
0.11047138 -0.25110853 -0.13728952 0.1313993 0.24930848 -0.20068163 -0.04713515 -0.020352988
-0.06956952

fpn.layer_blocks.1.0.weight f4 [5, 5, 3, 3]
00000000: da59 83be 3baa 533d 090b 7b3e 75bd 22be
00000010: 4b72 05be 6775 26bd a29e 3dbe 6f3c ad3c
00000020: 791d 77be 4d2e 58be 19ff 23be 108f 6f3e
00000030: 6543 323d e519 0f3e d2e2 373c c4a9 ccbd
00000040: a724 643d 0bba 3bbd d2d6 9a3d 4f03 cc3c
00000050: 923e 7b3e ce81 e6bd 061e 333d e4d7 cd3d
00000060: 7ef5 bbbc b337 f8bd dd3d 69be 6d97 293e
00000070: c3c7 06bd d18b 9abc 9713 463e 851f 873d
00000080: e97b b63d 62fe 653d 08ad 2bbd d420 a33b
00000090: 822c dfbd d06c 813e e66f 163e 84aa 3e3e
000000a0: eca3 6abe 2fb8 f43d 92fd c93d f9b2 abbd
000000b0: 09ae 123e 7be8 13bd 8b33 123e ee37 eebd
000000c0: 77f8 debd a19e 4f3d f417 68bc 34ea dbbb
000000d0: 63b0 23be 3311 38bd 24e0 23be 7331 0fbe
000000e0: 853e 0dbe 5eec 0f3e 24f4 7bbe 94fa 6abe
000000f0: 97b9 123e 3eaf f43d e9c3 f3bd 309d d6bd
00000100: 74b9 0b3e eb9a e63c e780 3cbe 8956 0c3d
00000110: b0a4 833e 54da d13d aeea 52bc ba39 eb3c
00000120: 9ae2 5f3d 3a7c 48bd a44d 07bd 303f 7a3e
00000130: 409d 5f3e c8b8 b33c 11db 87bd d507 2e3e
00000140: 06d6 563e d0b4 2bbd 79f2 2d3e 8a8c 3a3e
00000150: 659c f43d d216 223d 5efe 5f3e 200b 5d3e
00000160: 6391 1fbe 6348 35be a91e 9dbd 1a14 0bbe
00000170: 28d4 42be 4893 0f3e 4402 81be c96e e33d
00000180: 5386 bfbd bbb1 943d 2d81 acbd 5b6e a3bc
00000190: 27bc 64be 6acb 413e 4be6 95bc ee1d 49be
000001a0: 1a21 84bd b844 e03c ed00 08be a766 ccbd
000001b0: c545 ecbd b25e 0b3d 3b49 7abe cdf6 ed3c
000001c0: 3f64 6bbe 40e3 413e 4847 2abe 9f35 8d3d
000001d0: dea1 65be e758 9ebd 1baa 783e 3706 283e
000001e0: 7d9d 373e 227c 49be 694d 44be ccf3 6d3e
000001f0: 1c2b 3abe 5dfe 6ebe 8cf9 b4bd 961e 10be
00000200: e354 a6bd c09b 2f3e 72e0 76be 15af 043e
00000210: 3f07 2fbe 2a58 3ebe 88a5 f83d a1f2 073c
00000220: be77 413d d1cc 0e3e 90b6 df3d d4d5 2bbe
00000230: 6e67 323e 60e2 443e e490 543e 25eb 903d
00000240: 2250 03be f667 30be 94b4 70be 9837 3e3e
00000250: ec22 61be 6462 833d dde5 e3bd 4ead 5a3e
00000260: 72f7 3bbe 4659 d03d d06d 573e 0cf4 823e
00000270: 8fda 4ebd c8e2 873d 4e7b 063d 4e62 e63c
00000280: e1cc b8bc ec86 62bd 1b65 5cbe d258 2f3e
00000290: 1001 4fbe 35a7 293e d555 c7bd ca8b d13d
000002a0: 46a6 283e 925d 93bd 6320 3c3d 8870 4b3e
000002b0: e134 5c3e d041 b6bd 4a29 d23c 5aa5 353e
000002c0: 465b 013e 0d2e bbbd 0675 58be f762 52bd
000002d0: 73e8 64be 6e50 033e ebf4 fe3d d44d 72be
000002e0: a7a1 26bd 38eb a53d 1a23 febd 5a11 c13d
000002f0: 9093 a6bd 372f cfbc e649 66be 9129 193d
00000300: 0b78 d33a b6b1 043e d71c 63bd a9ef 93bd
00000310: 01da aabd 393b 703e fc45 473e 4cc6 e7bd
00000320: 75d8 10be 73f9 383e cd6a 49be 8a8a 3c3d
00000330: 284a 9f3d 725f a03d 0f1a 1b3e 0576 423e
00000340: 80ad 44be ec8d d2bc a372 19bc bf89 953d
00000350: 2c4e 433e b0ff 5bbe 3430 b5bc 2ac4 a53d
00000360: 6c64 a93d e564 30be 234d 633e 9f0e 673d
00000370: a411 b9bd d8bd d83d 22c1 8e3d 3ec7 5a3d
00000380: d613 203e
-0.2565449 0.051676016 0.24515928 -0.15892585 -0.1303188 -0.040639307 -0.18517545 0.021146981
-0.24132337 -0.21111412 -0.16015281 0.23394418 0.043521304 0.13974722 0.011223512 -0.09993318
0.055699017 -0.04583172 0.07560505 0.024903921 0.24535587 -0.11255227 0.043729804 0.100509435
-0.022944208 -0.12119999 -0.22777505 0.1656167 -0.03290535 -0.018865498 0.1934341 0.06597809
0.08910353 0.0561508 -0.041913062 0.0049782787 -0.10897161 0.2527833 0.14691123 0.18619734
-0.22914094 0.11949193 0.09862818 -0.08383746 0.14324202 -0.036110383 0.14277475 -0.116317615
-0.10887235 0.05068839 -0.014165867 -0.006711269 -0.15985255 -0.044938277 -0.16003472 -0.13983707
-0.1379338 0.1405501 -0.24604851 -0.2294715 0.1432861 0.11947487 -0.11902601 -0.104792
0.13644964 0.028150043 -0.18408547 0.034262214 0.25711584 0.10246721 -0.012873335 0.02871405
0.054659463 -0.048946597 -0.03303303 0.24438167 0.2183733 0.021938697 -0.066335805 0.16995175
0.20980081 -0.041920483 0.16987027 0.18217674 0.119438924 0.039572544 0.21874377 0.21586275
-0.15582804 -0.17703395 -0.076718636 -0.13581887 -0.19026244 0.14021027 -0.2519704 0.11105115
-0.09351792 0.07260462 -0.08423076 -0.019950083 -0.223374 0.18925253 -0.018298289 -0.19640324
-0.06451626 0.027376518 -0.13281603 -0.09980517 -0.11536745 0.034025855 -0.24441998 0.029048348
-0.2298746 0.18934345 -0.16628754 0.06894993 -0.22425029 -0.077318005 0.2428364 0.16408621
0.17931171 -0.19676259 -0.19170155 0.23237532 -0.18180507 -0.2333922 -0.0883666 -0.14074168
-0.081216596 0.17149258 -0.24109057 0.12957413 -0.17092608 -0.1858832 0.121409476 0.008297593
0.047233336 0.13945319 0.10923493 -0.16780788 0.17422268 0.1922698 0.20758396 0.070761
-0.12823537 -0.17227158 -0.23506385 0.18575895 -0.21985978 0.06415251 -0.11127827 0.21355173
-0.18356112 0.101732776 0.21037984 0.25576818 -0.050501402 0.06635052 0.032832436 0.028123047
-0.022558631 -0.055304453 -0.21522944 0.17123726 -0.20215249 0.1656769 -0.09733168 0.10231741
0.16469678 -0.071955815 0.045929324 0.19867146 0.21504547 -0.088992715 0.025654454 0.17738858
0.12632474 -0.09139643 -0.21138391 -0.05136391 -0.22354297 0.1282365 0.12449058 -0.23662502
-0.040681507 0.08101505 -0.12409039 0.09427138 -0.08133614 -0.025291068 -0.22489128 0.037393156
0.0016133798 0.12958416 -0.055447426 -0.07223446 -0.08342362 0.23460092 0.1946029 -0.11317119
-0.14145072 0.18063907 -0.19669648 0.04603056 0.07777816 0.07830705 0.1514666 0.18990333
-0.1920681 -0.02570244 -0.00936571 0.073016636 0.19072789 -0.21484256 -0.022117712 0.08094056
0.08271107 -0.17225988 0.22197394 0.056410428 -0.09036568 0.10583085 0.06970431 0.05341267
0.15632567

fpn.layer_blocks.2.0.weight f4 [5, 5, 3, 3]
00000000: 2b45 503d c6b2 0bbd 1567 d3bd 25ac 66be
00000010: 3b79 5b3e 0fb5 95bd bb34 2b3e 80a4 023b
00000020: 659f aebd e26c 043e 0400 2dbd eaa5 79be
00000030: 2145 82be 23f5 f1bc 5ada 4d3e 4554 6e3e
00000040: 028d 51be 519b 313e f0ae 403e adf8 123e
00000050: 9b04 64bd f35f 81be 218d 46be bea3 793e
00000060: 877c 073e e043 67bd 2558 223d 6997 2fbe
00000070: b8f6 cabd c336 9fbc 3696 0b3e 5a9d 433d
00000080: 0313 053e 833d f9bd a0c9 4b3e 31fd 663e
00000090: 3bdf 443d e10c 523e 93f0 c03d c6c4 81be
000000a0: 7666 6fbe 8341 2abe 43e1 c43d 6b1d 573e
000000b0: 69b3 f1bd f32f 47be 382e dfbd 1b86 3b3e
000000c0: b68a b73c 6306 e2bd d841 1e3e a541 743e
000000d0: 0b8d 413d 21f2 d8bd 3b86 83bc dd64 7d3e
000000e0: 9b89 3f3e 91d3 973d a960 5abe 6981 1b3e
000000f0: 2ef6 d4bd 011b 02be 6101 a3bd db93 e4bd
00000100: f77a 29be d91d b73d 886b 0c3e a6ad 2dbe
00000110: 73fe 01bd 5f83 3d3e 41aa 0d3e 27ec eebc
00000120: a76a 7abb 01f0 123e 5852 05be 0d25 033e
00000130: 1552 5dbe e915 d6bd 8118 e5bd 7972 2c3e
00000140: c9e3 173e b699 45be e230 5cbe 266a 08be
00000150: 842b 01be a392 5a3d baed 27be c51b 4bbd
00000160: 8e26 73bd 61b5 373b b2a7 7fbe bbc9 433e
00000170: 836d e03c 24b4 253c 0ed1 1cbe 6e20 633e
00000180: be2f 6cbe f304 2c3d 8450 49be 0609 50be
00000190: 46b8 07bc f585 9abd e85d c53c 9c30 9bbd
000001a0: 09c7 30ba 6ed8 56bd ccf9 153e b7ab 06be
000001b0: 8ef1 3bbd 6bc7 3c3e d59b 653e 0a57 1a3e
000001c0: 9b09 eb3d 25e9 6abe 3dfd 28be e6df 2fbe
000001d0: d54f 6339 5cdb ebbc 15ee 3eba fb47 afbd
000001e0: e260 6dbe 33e2 6d3e ce08 1e3e 1e3d fbbd
000001f0: 4c70 cbbd fdff 35bd f0d3 0abe 6f30 6cbd
00000200: 0979 813e 0978 a33d fe13 e2bd 501c 61bc
00000210: 763e 37be 7897 58be 05f1 d93d d084 8fbd
00000220: c0b1 473e 560f 4d3e c275 803d c6ea 04bd
00000230: 4b72 46be 905b 74be 7c85 20bd df0f 693e
00000240: 31ac 403e f5b3 b7bc 08c2 43be 37eb d6bc
00000250: f5b9 2c3e 9813 3b3e 52fd cebc 49e5 623e
00000260: f3d1 48bd 9fc0 5e3e ebf5 f23d 6684 4abd
00000270: eea8 17be 3afc 2bbe 7293 db3c 2bef 373e
00000280: c932 6dbe 0df2 7b3e 31d4 353d f6e0 823e
00000290: 5f72 683e 9b12 25be 6511 12bd 3d65 c23d
000002a0: 020d a93d 8e16 0f3e ad61 3b3d 2911 f4bc
000002b0: 94a0 3b3e bec5 413e 617f 5bbe af2f 32be
000002c0: a746 0d3e 3f6d 543e 0b31 80be 96ec 15bd
000002d0: c128 10bc 3dd5 7fbe 62be 81be 02f7 253e
000002e0: ebe4 8cbd be34 813e f1b5 a73d 0f82 1d3e
000002f0: c5f7 30be bc89 54bb d0e4 d0bd b706 523e
00000300: 3ef6 353e 8397 b03d d575 47bd 2fa5 7abe
00000310: 16f7 973b 2b91 473e 4dc4 ffbd 2081 183d
00000320: 4f4e 11be 4386 66bd 3997 633c c134 c83d
00000330: 1f8b 7abe 07af 523e 2994 713e d532 8e3d
00000340: 5804 433e 4ef4 8ebd a6da 813e 9eb3 053e
00000350: 834b 4fbe 2cac e33d 82fd a33d e12d 8ebd
00000360: 4984 5dbe c939 6a3d 5640 f93d 4c5c ecbd
00000370: 7dbe e73d aef6 203e eb02 6cbe caff 7bbe
00000380: 3294 15be
0.050847214 -0.03410604 -0.10322396 -0.22526605 0.21432965 -0.07309925 0.16719334 0.0019934475
-0.08526496 0.1293216 -0.042236343 -0.24379697 -0.25443366 -0.029535836 0.20102826 0.23274334
-0.20463946 0.17344405 0.18816733 0.14352675 -0.055668455 -0.25268516 -0.19389774 0.24378869
0.13231097 -0.056461215 0.039634842 -0.17147602 -0.09910339 -0.019435292 0.1363152 0.047757484
0.12995534 -0.121699356 0.19901133 0.22557522 0.04806445 0.20512725 0.09420886 -0.2534544
-0.2337893 -0.16626553 0.09613278 0.21007316 -0.11801798 -0.19451885 -0.108974874 0.18312876
0.02240501 -0.110363744 0.15454805 0.23853166 0.04725365 -0.105930574 -0.016055217 0.24745508
0.18704836 0.074134 -0.21325935 0.15186085 -0.103985175 -0.12705614 -0.079592474 -0.11161014
-0.16550814 0.0894124 0.13712895 -0.16960773 -0.031736802 0.18507145 0.13834478 -0.02916534
-0.0038210542 0.14349367 -0.13019693 0.12807103 -0.21613343 -0.10453398 -0.111863144 0.16840543
0.14832987 -0.19296917 -0.21503022 -0.13321742 -0.12614256 0.0533625 -0.16399279 -0.04958703
-0.05936294 0.0028031694 -0.24966314 0.19119923 0.02739597 0.01011375 -0.15314123 0.2218034
-0.23065087 0.041996907 -0.1965962 -0.20315942 -0.00828368 -0.075450815 0.02409263 -0.07577631
-0.0006743526 -0.052452497 0.14646071 -0.13151442 -0.04588466 0.18435447 0.22422726 0.15072265
0.114764415 -0.229405 -0.16502853 -0.17175254 0.00021678147 -0.028791122 -0.0007283402 -0.08558651
-0.23181489 0.2323082 0.15433046 -0.122675166 -0.09933528 -0.044433583 -0.1355741 -0.057663377
0.25287655 0.07981879 -0.110389695 -0.01373966 -0.1789492 -0.2115153 0.10641674 -0.07007754
0.195014 0.20025381 0.062724605 -0.03245046 -0.19379537 -0.23863053 -0.0391898 0.2275996
0.18815686 -0.022424677 -0.19116986 -0.026235206 0.16867812 0.18269193 -0.025267277 0.22157778
-0.04902835 0.21753167 0.118633114 -0.04944267 -0.14810535 -0.16795436 0.026803706 0.17962329
-0.23163904 0.24604054 0.044391815 0.25562257 0.22699879 -0.16120379 -0.03566112 0.09491966
0.08254434 0.13973448 0.045747448 -0.029793339 0.18322974 0.18923089 -0.2143531 -0.17401002
0.13796483 0.20744799 -0.25037417 -0.03660258 -0.008798779 -0.24983688 -0.25340563 0.16207507
-0.068796 0.25235552 0.081889994 0.15381645 -0.17282017 -0.003243073 -0.101998925 0.20510374
0.17769715 0.086226486 -0.048696358 -0.24477075 0.0046376092 0.19488971 -0.12488613 0.03723252
-0.14190029 -0.056280386 0.013891035 0.09775687 -0.24467133 0.2057458 0.23591675 0.06943289
0.19044626 -0.06980191 0.25362128 0.130568 -0.20243649 0.111168236 0.08007337 -0.069423445
-0.21632494 0.057184014 0.12170474 -0.11541042 0.1131563 0.15719101 -0.23047988 -0.24609295
-0.14607313
