pybuda/pybuda/op/eval/buda/matmul.pth (torch, 22351 bytes, 5 tensors)

fc1.weight f4 [64, 13]
8.926821 22.013165 17.844034 35.275394 30.871603 31.815035 62.113384 17.63153
29.316833 16.290255 2.917702 -11.717565 8.330191e-12 -379.07947 -141.8764 340.09302
-91.55089 60.20287 -11.704455 100.77759 53.651882 -17.916294 16.352278 3.403618
-5.23679 1.138002e-05 -10.163335 -18.962826 -44.306942 45.463425 68.2829 66.865105
24.32816 49.73492 -163.30501 2.1129014 -43.4182 -0.8278891 1.5037141e-08 -633.0344
-49.924713 169.09724 79.08507 70.76054 72.31553 92.51489 53.491917 29.592806
28.97839 0.5327065 -0.31668553 8.296153e-11 -31.882652 0.11027027 133.29944 44.38803
-31.200365 -37.6464 34.348133 0.5715636 1.3443654 -4.5079055 -64.38396 -10.081786
1.2031387e-06 -2.4978e-41 -2.4978e-41 7.595e-42 -1.843006e-11 -7.0589e-41 -7.0589e-41 -4.255e-41
-2.7269885e-18 -2.766595e-18 -9.529329e-22 -8.0226935e-05 -0.24489842 3.5329178e-10 2.3797e-41 2.3797e-41
2.0278e-41 2.3228e-41 2.4177e-41 2.4177e-41 2.3877e-41 2.4362e-41 2.3005e-41 -1.0683853e-31
-6.917216e-08 -0.18744685 -1.7238225e-11 -13.06198 -13.061982 -15.134876 10.794687 20.914362
20.914362 12.432119 -1.0174425 50.330666 -12.897115 2.1166618 -7.511747 -1.2715e-41
-21.45055 -21.45055 -79.947525 31.56278 17.775038 17.775038 143.04156 -106.88539
-19.574465 1.5120379 2.8220348 -0.42850417 5.07963e-10 -4.536815 35.54953 -829.0642
274.86298 60.19365 49.817467 97.16126 36.4538 14.60399 -5.427754 -6.61448
-0.30799603 1.1889434e-09 -701.4188 26.991179 131.83557 84.00282 79.20511 76.57134
100.09093 53.083637 39.84492 28.56177 1.3765725 0.06467836 -4.5988422e-08 -6.960427
-6.960452 -14.076305 13.042968 19.881271 19.881271 65.36219 -13.668999 -2.1972547
13.878912 8.914322 -1.687105 -9.207234e-09 -124.40775 5.924307 207.37076 241.51044
-35.84866 -37.54486 1.3030611 -5.0679975 -40.22723 -22.145473 -0.90192205 -2.844806
5.51996e-06 9.377027 9.377027 -7.053313 -8.354507 54.59716 54.59716 23.821669
-2.3857677 17.825962 -8.177593 3.7881558 -16.38562 1.0238136e-06 144.91154 -43.319084
-521.5931 -89.315445 9.852087 12.63843 14.497132 -0.45282498 31.93881 8.965129
-8.821782 1.194016 -2.5696064e-12 18.986204 18.986174 -51.760525 -8.440334 42.712063
42.712063 34.330574 -367.69775 24.607616 14.44821 -0.006906337 -0.020453181 1.9712884e-11
-7.9825196 5.38987 45.957504 -11.047128 31.909016 25.733803 68.97938 -4.2254295
15.560082 0.9461297 -1.2506243 -0.69074017 6.3845285e-09 201.83838 26.951094 7.1178718
-15.043833 -24.23906 -30.06541 -35.012493 -32.344414 -62.112995 -30.131395 0.65520906
-0.26808313 -3.8105657e-07 -18.057888 -18.057888 32.42826 28.452118 -36.50324 -36.50324
32.61611 -177.38422 37.45293 6.784262 -25.881048 0.08510395 -1.05042295e-08 2.6222e-41
2.6222e-41 3.5997e-41 2.9668e-41 3.5028e-41 3.5028e-41 3.632e-41 3.1339e-41 2.4846e-41
00000000: 42d4 0e41 f61a b041 95c0 8e41 011a 0d42
00000010: 0bf9 f641 3185 fe41 1b74 7842 600d 8d41
00000020: e088 ea41 7152 8241 a1bb 3a40 257b 3bc1
00000030: d88b 122d 2c8a bdc3 5ce0 0dc3 e80b aa43
00000040: 0e1a b7c2 bdcf 7042 7345 3bc1 208e c942
00000050: 879b 5642 9254 8fc1 77d1 8241 e1d4 5940
00000060: c993 a7c0 d0ec 3e37 059d 22c1 deb3 97c1
00000070: 4f3a 31c2 8cda 3542 d890 8842 efba 8542
00000080: 12a0 c241 8ff0 4642 154e 23c3 c739 0740
00000090: 3dac 2dc2 8af0 53bf 062b 8132 3442 1ec4
000000a0: e8b2 47c2 e518 2943 8e2b 9e42 6585 8d42
000000b0: 8da1 9042 a007 b942 b9f7 5542 11be ec41
000000c0: bed3 e741 745f 083f 9b24 a2be 306f b62e
000000d0: ac0f ffc1 61d5 e13d a84c 0543 588d 3142
000000e0: 599a f9c1 ea95 16c2 7d64 0942 fe51 123f
000000f0: 2a14 ac3f c340 90c0 96c4 80c2 ff4e 21c1
00000100: 887b a135 a145 0080 a145 0080 2c15 0000
00000110: ce1c a2ad c6c4 0080 c6c4 0080 9d76 0080
00000120: 5b37 49a2 8123 4ca2 ce00 909c 823f a8b8
00000130: a7c6 7abe 6639 c22f 5642 0000 5642 0000
00000140: 8738 0000 c040 0000 6543 0000 6543 0000
00000150: 8f42 0000 e943 0000 2140 0000 31af 0a8c
00000160: cc8b 94b3 11f2 3fbe 08a1 97ad dffd 50c1
00000170: e1fd 50c1 7428 72c1 0ab7 2c41 9d50 a741
00000180: 9d50 a741 f6e9 4641 8e3b 82bf 9a52 4942
00000190: 955a 4ec1 6377 0740 3b60 f0c0 7223 0080
000001a0: ba9a abc1 ba9a abc1 22e5 9fc2 9380 fc41
000001b0: 4733 8e41 4733 8e41 a40a 0f43 52c5 d5c2
000001c0: 8198 9cc1 758a c13f 389c 3440 e664 dbbe
000001d0: b8a0 0b30 972d 91c0 b832 0e42 1c44 4fc4
000001e0: 766e 8943 4cc6 7042 1645 4742 9152 c242
000001f0: b1d0 1142 f1a9 6941 29b0 adc0 d2a9 d3c0
00000200: a8b1 9dbe 3a68 a330 ce5a 2fc4 efed d741
00000210: e8d5 0343 7201 a842 0469 9e42 8724 9942
00000220: 8e2e c842 a555 5442 3361 1f42 817e e441
00000230: 8733 b03f 1776 843d ce84 45b3 d1bb dec0
00000240: 06bc dec0 8c38 61c1 ffaf 5041 d80c 9f41
00000250: d80c 9f41 71b9 8242 38b4 5ac1 d29f 0cc0
00000260: 0610 5e41 10a1 0e41 0ef3 d7bf d82d 1eb2
00000270: c5d0 f8c2 ec93 bd40 ea5e 4f43 ac82 7143
00000280: 0765 0fc2 f02d 16c2 b5ca a63f 092d a2c0
00000290: afe8 20c2 ee29 b1c1 5de4 66bf 4d11 36c0
000002a0: 1838 b936 4d08 1641 4d08 1641 bdb4 e1c0
000002b0: 10ac 05c1 7e63 5a42 7e63 5a42 c792 be41
000002c0: 6bb0 18c0 929b 8e41 6cd7 02c1 2571 7240
000002d0: c015 83c1 f869 8935 5be9 1043 be46 2dc2
000002e0: f565 02c4 82a1 b2c2 26a2 1d41 0237 4a41
000002f0: 41f4 6741 add8 e7be af82 ff41 2b71 0f41
00000300: 0526 0dc1 84d5 983f ead1 34ac bfe3 9741
00000310: afe3 9741 c70a 4fc2 9c0b 07c1 27d9 2a42
00000320: 27d9 2a42 8252 0942 50d9 b7c3 66dc c441
00000330: de2b 6741 8e4e e2bb 6e8d a7bc 7865 ad2d
00000340: cd70 ffc0 d179 ac40 7cd4 3742 09c1 30c1
00000350: aa45 ff41 d4de cd41 71f5 8942 b836 87c0
00000360: 19f6 7841 8e35 723f 7514 a0bf 59d4 30bf
00000370: e85e db31 a0d6 4943 d79b d741 9bc5 e340
00000380: 8ab3 70c1 98e9 c1c1 f685 f0c1 cb0c 0cc2
00000390: ae60 01c2 b573 78c2 190d f1c1 c8bb 273f
000003a0: 3142 89be 0494 ccb4 8e76 90c1 8e76 90c1
000003b0: 8ab6 0142 f09d e341 5103 12c2 5103 12c2
000003c0: e676 0242 5c62 31c3 cdcf 1542 ad18 d940
000003d0: 630c cfc1 fb4a ae3d 1776 34b2 1949 0000
000003e0: 1949 0000 5864 0000 b452 0000 a561 0000
000003f0: a561 0000 3f65 0000 5c57 0000 4345 0000

fc1.bias f4 [64]
13.507038 72.1349 12.796734 208.08453 -16.410263 2.4837e-41 2.3276e-41 41.01653
-30.141964 413.78983 265.2266 40.300304 298.67874 29.176125 28.655611 60.592403
-16.287733 223.60905 49.392876 2.4975e-41 -122.74897 -34.60231 -46.2028 163.30688
85.484795 16.069178 43.686497 217.28717 488.12228 -730.4282 135.89973 48.68534
-588.8535 -455.27408 -48.027744 5.4083223 -42.839664 44.154408 -743.642 -130.57483
41.46449 -19.694807 50.067783 -0.5253342 -13.866848 54.3026 -75.338326 -431.48843
-596.10913 1.0849967 10.756385 327.7406 530.93805 -320.8126 107.87543 254.15291
-349.9315 35.77308 -260.23682 68.56401 28.724249 -62.840042 186.46165 46.679775
00000000: d41c 5841 1245 9042 6cbf 4c41 a415 5043
00000010: 3848 83c1 3c45 0000 e240 0000 ed10 2442
00000020: be22 f1c1 19e5 ce43 019d 8443 8333 2142
00000030: e156 9543 b468 e941 b13e e541 9f5e 7242
00000040: 474d 82c1 eb9b 5f43 4e92 4542 9f45 0000
00000050: 797f f5c2 c468 0ac2 abcf 38c2 904e 2343
00000060: 37f8 aa42 ad8d 8041 f9be 2e42 8449 5943
00000070: a70f f443 689b 36c4 55e6 0743 cabd 4242
00000080: a036 13c4 15a3 e3c3 691c 40c2 fa10 ad40
00000090: d15b 2bc2 1d9e 3042 17e9 39c4 2893 02c3
000000a0: a3db 2542 f78e 9dc1 6945 4842 4d7c 06bf
000000b0: 9cde 5dc1 dd35 5942 39ad 96c2 85be d7c3
000000c0: fc06 15c4 2ce1 8a3f 271a 2c41 ccde a343
000000d0: 09bc 0444 0368 a0c3 38c0 d742 2527 7e43
000000e0: 3bf7 aec3 a217 0f42 501e 82c3 c620 8942
000000f0: 43cb e541 345c 7bc2 2f76 3a43 17b8 3a42

fc2.weight f4 [64, 64]
4.146289 -40.288773 -13.562858 6.297389 -4.5878305 4.888829e-13 5.0532695e-38 -8.628002
-6.8870573 4.632749 -4.9907737 14.808577 6.5714355 8.5996895 -49.87929 10.608075
7.3080044 6.4815063 -26.876596 2.9577e-41 -25.66731 -4.8356857 -0.18952814 -14.610302
2.472751 -27.530056 16.246504 -8.961523 -2.6678433 -4.786082 -7.3515797 3.5713315
1.4819788 6.8535943 -16.313437 0.51176083 -65.23679 -2.4749813 -12.262586 -2.1448448
-22.579716 -7.6401286 -0.46417364 0.15282294 18.713732 -3.8847647 4.494175 31.008219
-18.996965 7.5597463 -17.494148 -76.14364 -4.989946 -9.892185 7.427676 -7.213358
-2.2294204 13.360079 8.578173 -12.753012 -21.471361 1.6246651 -47.21202 18.602896
-0.2678479 -3.0935e-41 3.9852e-41 -24.209648 -1.117e-41 -5.1662e-41 -1.4416056e-21 3.0785e-41
10.086548 -13.371646 -4.5690565 -7.0592427 -27.66221 -0.13717169 -13.781415 31.623112
7.560858 38.3163 -0.6194753 -2.7212e-41 -10.949596 -0.105857946 -1.9139913 14.235143
9.570854 0.11340674 -5.7912803 -5.074602 -0.40241948 -5.40994 0.05369528 -24.34664
1.6110026 9.854052 13.972668 -0.17656997 2.0347e-41 16.054918 -18.470158 3.159e-41
-0.124652274 1.0897151 -12.568024 0.34866655 -34.447773 -5.1416025 3.5683e-41 -1.4704e-41
3.276e-41 -15.345567 -0.22726579 -40.0257 -12.597693 4.7469306 -18.165329 -36.810863
-0.5515011 -10.662118 -17.420708 -2.9254e-41 -0.1282499 9.719694 -32.855255 18.211409
3.6089e-41 3.5589e-41 2.9043e-41 2.2993e-41 2.9968e-41 -3.0876e-41 3.1078e-41 2.9965e-41
2.1444e-41 0.08218382 -0.49674022 2.4144e-41 2.1878e-41 -3.0056e-41 -0.49354327 -0.2652269
1.9467e-41 0.021483548 2.0919e-41 4.7473e-41 -4.1976e-41 2.1785e-41 -0.12623073 -0.24923885
-0.26599374 -0.3017355 -3.5231287e-07 -0.4611225 -0.47420803 -0.33685258 4.5984e-41 2.2401e-41
-0.11860613 -0.21998057 2.0675e-41 2.5338e-41 -1.0731e-41 -0.39913082 0.0012507536 3.4388e-41
2.6678e-41 -0.027482428 2.8474e-41 -3.0915e-41 2.4056e-41 4.6127e-41 -3.9018e-41 4.044e-41
-0.10856384 2.3912e-41 2.1416e-41 -0.3491189 -0.48136538 -0.43861228 -0.46150118 -0.53963286
-0.1404016 -0.35217568 2.5848e-41 -2.6242e-41 3.2308e-41 -0.38073966 -0.32600343 -0.3374443
0.038170543 0.016167665 -0.36342508 -0.26506996 0.009680885 2.4985e-41 3.3876e-41 0.07450315
-0.78772706 -0.5638935 -0.002613403 0.046216182 -0.12109939 0.16161272 -0.27859786 0.04912583
-0.4849854 -0.15129663 -0.72458076 3.2304e-41 -0.3872003 -0.5279484 -0.26114354 -0.1553382
-0.8270564 -0.33689746 -0.90722585 -0.9343435 -0.2947736 -0.105582826 -0.020688195 -0.100150615
-0.237364 0.18243681 -0.09869759 0.18535487 -0.3272021 -0.68898803 -0.70849943 -0.1336287
-0.039528783 -0.49218753 -0.22385296 -1.8797e-41 0.27312002 0.047408752 -0.36353818 0.29679096
-0.05153552 -0.012450553 -0.47441 -0.35203835 -0.7769901 0.2543446 -0.39353484 -0.38078904
-0.612648 0.121248685 -0.27837205 -0.21425195 -0.04319252 -0.24290259 -0.3094097 -0.18543129
00000000: 66ae 8440 b427 21c2 7701 59c1 3684 c940
00000010: 82cf 92c0 ba9b 092b 2690 8901 4c0c 0ac1
00000020: c662 dcc0 7b3f 9440 6bb4 9fc0 eeef 6c41
00000030: 3349 d240 5498 0941 6584 47c2 adba 2941
00000040: 2cdb e940 8068 cf40 4503 d7c1 7352 0000
00000050: a756 cdc1 f0bd 9ac0 aa13 42be ccc3 69c1
00000060: 8d41 1e40 8e3d dcc1 d7f8 8141 6662 0fc1
00000070: f2bd 2ac0 9527 99c0 2440 ebc0 b290 6440
00000080: 7bb1 bd3f a550 db40 eb81 82c1 c202 033f
00000090: 3d79 82c2 1866 1ec0 8d33 44c1 2345 09c0
000000a0: 42a3 b4c1 ef7b f4c0 2ba8 edbe 9e7d 1c3e
000000b0: b9b5 9541 fc9f 78c0 48d0 8f40 d510 f841
000000c0: c9f9 97c1 71e9 f140 04f4 8bc1 8b49 98c2
000000d0: a3ad 9fc0 6446 1ec1 86af ed40 d4d3 e6c0
000000e0: d3ae 0ec0 e2c2 5541 3240 0941 560c 4cc1
000000f0: 59c5 abc1 07f5 cf3f 1cd9 3cc2 bbd2 9441
00000100: 5c23 89be 3c56 0080 176f 0000 5cad c1c1
00000110: 231f 0080 0390 0080 6ad9 d99c d155 0000
00000120: 8062 2141 43f2 55c1 b635 92c0 51e5 e1c0
00000130: 354c ddc1 bc76 0cbe ad80 5cc1 22fc fc41
00000140: 8cf2 f140 e443 1942 ef95 1ebf db4b 0080
00000150: 8c31 2fc1 0dcc d8bd abfd f4bf 25c3 6341
00000160: 3822 1941 cb41 e83d 2b52 b9c0 2463 a2c0
00000170: ed09 cebe 3a1e adc0 95ef 5b3d ebc5 c2c1
00000180: 5535 ce3f 32aa 1d41 0c90 5f41 c2ce 34be
00000190: b838 0000 7970 8041 e2c2 93c1 0f58 0000
000001a0: b149 ffbd c97b 8b3f a016 49c1 6c84 b23e
000001b0: 85ca 09c2 0288 a4c0 7863 0000 fd28 0080
000001c0: 525b 0000 7187 75c1 5db8 68be 511a 20c2
000001d0: 2790 49c1 dbe6 9740 9852 91c1 533e 13c2
000001e0: 2d2f 0dbf 0998 2ac1 9c5d 8bc1 8c51 0080
000001f0: f153 03be de83 1b41 c86b 03c2 f7b0 9141
00000200: 9a64 0000 3563 0000 f650 0000 1840 0000
00000210: 8a53 0000 1256 0080 a256 0000 8853 0000
00000220: c73b 0000 fe4f a83d bc54 febe 4e43 0000
00000230: fd3c 0000 c953 0080 b4b1 fcbe d2cb 87be
00000240: 4436 0000 44fe af3c 503a 0000 5684 0000
00000250: 0375 0080 ba3c 0000 a142 01be 7838 7fbe
00000260: 5530 88be 137d 9abe 8325 bdb4 4018 ecbe
00000270: 65cb f2be f177 acbe 2f80 0000 723e 0000
00000280: c5e7 f2bd 9642 61be a239 0000 a246 0000
00000290: ea1d 0080 e05a ccbe 54f0 a33a dc5f 0000
000002a0: 5e4a 0000 d422 e1bc 604f 0000 2e56 0080
000002b0: 0f43 0000 9580 0000 c46c 0080 bb70 0000
000002c0: b856 debd a842 0000 b33b 0000 b6bf b2be
000002d0: 8675 f6be ca91 e0be e249 ecbe 6125 0abf
000002e0: 70c5 0fbe 5f50 b4be 0e48 0000 2749 0080
000002f0: 105a 0000 4ff0 c2be ece9 a6be 80c5 acbe
00000300: b758 1c3d 0d72 843c da12 babe 40b7 87be
00000310: 939c 1e3c a645 0000 6f5e 0000 1c95 983d
00000320: 7ba8 49bf 535b 10bf a045 2bbb 2e4d 3d3d
00000330: f502 f8bd ce7d 253e 61a4 8ebe 2b38 493d
00000340: 0250 f8be 81ed 1abe 207e 39bf 0d5a 0000
00000350: 1e3f c6be a027 07bf 9bb4 85be fa10 1fbe
00000360: f8b9 53bf d37d acbe f43f 68bf 2331 6fbf
00000370: 91ec 96be cf3b d8bd 4a7a a9bc c41b cdbd
00000380: 8c0f 73be b7d0 3a3e f621 cabd abcd 3d3e
00000390: 0987 a7be 8561 30bf 3860 35bf f6d5 08be
000003a0: efe8 21bd 0100 fcbe b639 65be 6634 0080
000003b0: 63d6 8b3e ae2f 423d ad21 babe fcf4 973e
000003c0: e916 53bd 67fd 4bbc dee5 f2be 5f3e b4be
000003d0: d3e8 46bf 7539 823e 667d c9be c8f6 c2be
000003e0: 80d6 1cbf 3b51 f83d c886 8ebe dd64 5bbe
000003f0: a4ea 30bd 75bb 78be f36a 9ebe b3e1 3dbe

fc2.bias f4 [64]
6.7284136 64.28412 -1.7009887e-18 -0.45720503 -25.370893 -13.9249525 -0.0014638881 -21.34174
-30.71767 -31.603767 2.837e-41 -1.7440617e-34 -19.206806 -4.3881936 -2.67071 -0.52497035
14.90444 2.6148e-41 9.459531 -7.632331 -0.4337496 -1.1237728e-08 108.691956 -5.796553
-1.7600069 3.3715e-41 -513.84814 -41.067738 -0.7271273 -1.9991201 -7.3708973 -29.350834
-11.03336 -21.066696 -236.14679 -3.313742e-07 8.058071 -0.24707294 437.4278 28.695755
-35.72041 -27.637331 -0.1543878 -0.0061636004 -140.64592 0.29707602 3.409947 15.03421
-0.4660265 8.051538 1.8402e-41 3.2554e-41 -0.22139889 342.87967 -6.969462 17.93367
1.4838213 -19.81374 -7.244691 -25.646246 -11.5532055 -15.397761 -0.023535678 -53.7931
00000000: 2a4f d740 7891 8042 8905 fba1 c716 eabe
00000010: 97f7 cac1 9bcc 5ec1 efdf bfba e2bb aac1
00000020: cabd f5c1 84d4 fcc1 164f 0000 58d3 6787
00000030: 8aa7 99c1 156c 8cc0 eaec 2ac0 7564 06bf
00000040: 9678 6e41 e448 0000 3d5a 1741 0e3c f4c0
00000050: 6d14 debe 0d10 41b2 4862 d942 5d7d b9c0
00000060: e847 e1bf fc5d 0000 4876 00c4 5d45 24c2
00000070: 0425 3abf 2be3 ffbf 64de ebc0 82ce eac1
00000080: a488 30c1 9888 a8c1 9425 6cc3 b9e7 b1b4
00000090: dced 0041 b000 7dbe c2b6 da43 e890 e541
000000a0: b3e1 0ec2 4119 ddc1 d617 1ebe 07f8 c9bb
000000b0: 5ba5 0cc3 591a 983e 923c 5a40 208c 7041
000000c0: 079b eebe 1ad3 0041 4c33 0000 bf5a 0000
000000d0: 64b6 62be 9970 ab43 d505 dfc0 2878 8f41
000000e0: dbed bd3f 8a82 9ec1 82d4 e7c0 832b cdc1
000000f0: eed9 38c1 3b5d 76c1 e5cd c0bc 222c 57c2

fc3.weight f4 [1, 64]
0.70421267 -0.71658796 -0.28440294 -0.030442819 -0.3185313 -0.7729935 -0.17616217 0.5256255
0.46472463 0.42136818 0.18950875 -0.012573011 0.38010034 -0.5976084 0.43461153 -0.21444595
0.3870872 -1.6447733e-18 0.6977741 0.64604616 -0.0332949 -0.21802878 0.60306525 -0.4203625
-0.5281525 6.57e-43 1.3931719 4.6857653 0.19750665 -0.4571779 -0.3852359 -0.31515703
-0.30145678 -0.5595515 0.5445531 0.25063583 0.7356304 1.0128671 0.5074375 0.68430716
0.57106674 2.599749 0.020335656 -0.0064439545 0.40864202 -0.39911056 -0.6607691 0.8420453
-0.3977254 -0.2576369 7.4103e-41 -2.6718521e-07 0.17035338 0.4373885 -0.6545282 -3.1582918
-0.37868235 -0.51880836 0.3954758 0.52176464 -0.5850916 0.755987 0.16388594 -0.530547
00000000: 4847 343f 4f72 37bf 439d 91be 3863 f9bc
00000010: 8916 a3be e7e2 45bf db63 34be 658f 063f
00000020: 63f0 ed3e 92bd d73e 950e 423e 08ff 4dbc
00000030: 839c c23e ddfc 18bf 6785 de3e b897 5bbe
00000040: 4b30 c63e c7b9 f2a1 53a1 323f 4863 253f
00000050: 3c60 08bd f042 5fbe 7c62 1a3f c139 d7be
00000060: 0135 07bf d501 0000 7553 b23f caf1 9540
00000070: 2f3f 4a3e 3913 eabe a43d c5be 435c a1be
00000080: 8b58 9abe c43e 0fbf d567 0b3f 5753 803e
00000090: 4652 3c3f a1a5 813f 6de7 013f c12e 2f3f
000000a0: 6e31 123f 4a62 2640 f696 a63c cf27 d3bb
000000b0: 8739 d13e 3858 ccbe 2a28 29bf 4890 573f
000000c0: aaa2 cbbe fce8 83be 92ce 0000 a871 8fb4
000000d0: 1e71 2e3e 63f1 df3e 298f 27bf 7421 4ac0
000000e0: a7e2 c1be a0d0 04bf ce7b ca3e 5e92 053f
000000f0: 90c8 15bf 5d88 413f b7d1 273e eed1 07bf
